7767517
199 257
Input                    in0                      0 1 in0
ExpandDims               unsqueeze_80             1 1 in0 1 -23303=1,0
Permute                  transpose_78             1 1 1 2 0=1
Padding                  pad_83                   1 1 2 3 0=0 1=0 2=2 3=2 4=2
Convolution1D            conv1drelu_0             1 1 3 4 0=1024 1=5 2=1 3=1 4=0 5=1 6=409600 7=1 9=1
BatchNorm                bn_1                     1 1 4 5 0=1024 1=1.000000e-05
Split                    splitncnn_0              1 2 5 6 7
Padding                  pad_85                   1 1 7 8 0=0 1=0 2=0 3=0 4=2
Convolution1D            conv1drelu_1             1 1 8 9 0=1024 1=1 2=1 3=1 4=0 5=1 6=1048576 7=1 9=1
BatchNorm                bn_2                     1 1 9 10 0=1024 1=1.000000e-05
Slice                    chunk_0                  1 8 10 11 12 13 14 15 16 17 18 -23300=8,-233,-233,-233,-233,-233,-233,-233,-233 1=0
Padding                  pad_87                   1 1 12 19 0=0 1=0 2=2 3=2 4=2
Convolution1D            conv1drelu_2             1 1 19 20 0=128 1=3 2=2 3=1 4=0 5=1 6=49152 7=1 9=1
BatchNorm                bn_3                     1 1 20 21 0=128 1=1.000000e-05
Split                    splitncnn_1              1 2 21 22 23
BinaryOp                 add_0                    2 1 13 23 24 0=0
Padding                  pad_89                   1 1 24 25 0=0 1=0 2=2 3=2 4=2
Convolution1D            conv1drelu_3             1 1 25 26 0=128 1=3 2=2 3=1 4=0 5=1 6=49152 7=1 9=1
BatchNorm                bn_4                     1 1 26 27 0=128 1=1.000000e-05
Split                    splitncnn_2              1 2 27 28 29
BinaryOp                 add_1                    2 1 14 29 30 0=0
Padding                  pad_91                   1 1 30 31 0=0 1=0 2=2 3=2 4=2
Convolution1D            conv1drelu_4             1 1 31 32 0=128 1=3 2=2 3=1 4=0 5=1 6=49152 7=1 9=1
BatchNorm                bn_5                     1 1 32 33 0=128 1=1.000000e-05
Split                    splitncnn_3              1 2 33 34 35
BinaryOp                 add_2                    2 1 15 35 36 0=0
Padding                  pad_93                   1 1 36 37 0=0 1=0 2=2 3=2 4=2
Convolution1D            conv1drelu_5             1 1 37 38 0=128 1=3 2=2 3=1 4=0 5=1 6=49152 7=1 9=1
BatchNorm                bn_6                     1 1 38 39 0=128 1=1.000000e-05
Split                    splitncnn_4              1 2 39 40 41
BinaryOp                 add_3                    2 1 16 41 42 0=0
Padding                  pad_95                   1 1 42 43 0=0 1=0 2=2 3=2 4=2
Convolution1D            conv1drelu_6             1 1 43 44 0=128 1=3 2=2 3=1 4=0 5=1 6=49152 7=1 9=1
BatchNorm                bn_7                     1 1 44 45 0=128 1=1.000000e-05
Split                    splitncnn_5              1 2 45 46 47
BinaryOp                 add_4                    2 1 17 47 48 0=0
Padding                  pad_97                   1 1 48 49 0=0 1=0 2=2 3=2 4=2
Convolution1D            conv1drelu_7             1 1 49 50 0=128 1=3 2=2 3=1 4=0 5=1 6=49152 7=1 9=1
BatchNorm                bn_8                     1 1 50 51 0=128 1=1.000000e-05
Split                    splitncnn_6              1 2 51 52 53
BinaryOp                 add_5                    2 1 18 53 54 0=0
Padding                  pad_99                   1 1 54 55 0=0 1=0 2=2 3=2 4=2
Convolution1D            conv1drelu_8             1 1 55 56 0=128 1=3 2=2 3=1 4=0 5=1 6=49152 7=1 9=1
BatchNorm                bn_9                     1 1 56 57 0=128 1=1.000000e-05
Concat                   cat_0                    8 1 11 22 28 34 40 46 52 57 58 0=0
Padding                  pad_101                  1 1 58 59 0=0 1=0 2=0 3=0 4=2
Convolution1D            conv1drelu_9             1 1 59 60 0=1024 1=1 2=1 3=1 4=0 5=1 6=1048576 7=1 9=1
BatchNorm                bn_10                    1 1 60 61 0=1024 1=1.000000e-05
Split                    splitncnn_7              1 2 61 62 63
Reduction                mean_71                  1 1 63 64 0=3 1=0 -23303=1,1 4=1 5=1
Padding                  pad_103                  1 1 64 65 0=0 1=0 2=0 3=0 4=2
Convolution1D            conv1drelu_10            1 1 65 66 0=128 1=1 2=1 3=1 4=0 5=1 6=131072 7=1 9=1
Padding                  pad_105                  1 1 66 67 0=0 1=0 2=0 3=0 4=2
Convolution1D            conv1dsigmoid_33         1 1 67 68 0=1024 1=1 2=1 3=1 4=0 5=1 6=131072 7=1 9=4
BinaryOp                 mul_6                    2 1 68 62 69 0=2
BinaryOp                 add_7                    2 1 69 6 70 0=0
Split                    splitncnn_8              1 3 70 71 72 73
Padding                  pad_107                  1 1 73 74 0=0 1=0 2=0 3=0 4=2
Convolution1D            conv1drelu_11            1 1 74 75 0=1024 1=1 2=1 3=1 4=0 5=1 6=1048576 7=1 9=1
BatchNorm                bn_11                    1 1 75 76 0=1024 1=1.000000e-05
Slice                    chunk_1                  1 8 76 77 78 79 80 81 82 83 84 -23300=8,-233,-233,-233,-233,-233,-233,-233,-233 1=0
Padding                  pad_109                  1 1 78 85 0=0 1=0 2=3 3=3 4=2
Convolution1D            conv1drelu_12            1 1 85 86 0=128 1=3 2=3 3=1 4=0 5=1 6=49152 7=1 9=1
BatchNorm                bn_12                    1 1 86 87 0=128 1=1.000000e-05
Split                    splitncnn_9              1 2 87 88 89
BinaryOp                 add_8                    2 1 79 89 90 0=0
Padding                  pad_111                  1 1 90 91 0=0 1=0 2=3 3=3 4=2
Convolution1D            conv1drelu_13            1 1 91 92 0=128 1=3 2=3 3=1 4=0 5=1 6=49152 7=1 9=1
BatchNorm                bn_13                    1 1 92 93 0=128 1=1.000000e-05
Split                    splitncnn_10             1 2 93 94 95
BinaryOp                 add_9                    2 1 80 95 96 0=0
Padding                  pad_113                  1 1 96 97 0=0 1=0 2=3 3=3 4=2
Convolution1D            conv1drelu_14            1 1 97 98 0=128 1=3 2=3 3=1 4=0 5=1 6=49152 7=1 9=1
BatchNorm                bn_14                    1 1 98 99 0=128 1=1.000000e-05
Split                    splitncnn_11             1 2 99 100 101
BinaryOp                 add_10                   2 1 81 101 102 0=0
Padding                  pad_115                  1 1 102 103 0=0 1=0 2=3 3=3 4=2
Convolution1D            conv1drelu_15            1 1 103 104 0=128 1=3 2=3 3=1 4=0 5=1 6=49152 7=1 9=1
BatchNorm                bn_15                    1 1 104 105 0=128 1=1.000000e-05
Split                    splitncnn_12             1 2 105 106 107
BinaryOp                 add_11                   2 1 82 107 108 0=0
Padding                  pad_117                  1 1 108 109 0=0 1=0 2=3 3=3 4=2
Convolution1D            conv1drelu_16            1 1 109 110 0=128 1=3 2=3 3=1 4=0 5=1 6=49152 7=1 9=1
BatchNorm                bn_16                    1 1 110 111 0=128 1=1.000000e-05
Split                    splitncnn_13             1 2 111 112 113
BinaryOp                 add_12                   2 1 83 113 114 0=0
Padding                  pad_119                  1 1 114 115 0=0 1=0 2=3 3=3 4=2
Convolution1D            conv1drelu_17            1 1 115 116 0=128 1=3 2=3 3=1 4=0 5=1 6=49152 7=1 9=1
BatchNorm                bn_17                    1 1 116 117 0=128 1=1.000000e-05
Split                    splitncnn_14             1 2 117 118 119
BinaryOp                 add_13                   2 1 84 119 120 0=0
Padding                  pad_121                  1 1 120 121 0=0 1=0 2=3 3=3 4=2
Convolution1D            conv1drelu_18            1 1 121 122 0=128 1=3 2=3 3=1 4=0 5=1 6=49152 7=1 9=1
BatchNorm                bn_18                    1 1 122 123 0=128 1=1.000000e-05
Concat                   cat_1                    8 1 77 88 94 100 106 112 118 123 124 0=0
Padding                  pad_123                  1 1 124 125 0=0 1=0 2=0 3=0 4=2
Convolution1D            conv1drelu_19            1 1 125 126 0=1024 1=1 2=1 3=1 4=0 5=1 6=1048576 7=1 9=1
BatchNorm                bn_19                    1 1 126 127 0=1024 1=1.000000e-05
Split                    splitncnn_15             1 2 127 128 129
Reduction                mean_72                  1 1 129 130 0=3 1=0 -23303=1,1 4=1 5=1
Padding                  pad_125                  1 1 130 131 0=0 1=0 2=0 3=0 4=2
Convolution1D            conv1drelu_20            1 1 131 132 0=128 1=1 2=1 3=1 4=0 5=1 6=131072 7=1 9=1
Padding                  pad_127                  1 1 132 133 0=0 1=0 2=0 3=0 4=2
Convolution1D            conv1dsigmoid_34         1 1 133 134 0=1024 1=1 2=1 3=1 4=0 5=1 6=131072 7=1 9=4
BinaryOp                 mul_14                   2 1 134 128 135 0=2
BinaryOp                 add_15                   2 1 135 72 136 0=0
Split                    splitncnn_16             1 3 136 137 138 139
Padding                  pad_129                  1 1 139 140 0=0 1=0 2=0 3=0 4=2
Convolution1D            conv1drelu_21            1 1 140 141 0=1024 1=1 2=1 3=1 4=0 5=1 6=1048576 7=1 9=1
BatchNorm                bn_20                    1 1 141 142 0=1024 1=1.000000e-05
Slice                    chunk_2                  1 8 142 143 144 145 146 147 148 149 150 -23300=8,-233,-233,-233,-233,-233,-233,-233,-233 1=0
Padding                  pad_131                  1 1 144 151 0=0 1=0 2=4 3=4 4=2
Convolution1D            conv1drelu_22            1 1 151 152 0=128 1=3 2=4 3=1 4=0 5=1 6=49152 7=1 9=1
BatchNorm                bn_21                    1 1 152 153 0=128 1=1.000000e-05
Split                    splitncnn_17             1 2 153 154 155
BinaryOp                 add_16                   2 1 145 155 156 0=0
Padding                  pad_133                  1 1 156 157 0=0 1=0 2=4 3=4 4=2
Convolution1D            conv1drelu_23            1 1 157 158 0=128 1=3 2=4 3=1 4=0 5=1 6=49152 7=1 9=1
BatchNorm                bn_22                    1 1 158 159 0=128 1=1.000000e-05
Split                    splitncnn_18             1 2 159 160 161
BinaryOp                 add_17                   2 1 146 161 162 0=0
Padding                  pad_135                  1 1 162 163 0=0 1=0 2=4 3=4 4=2
Convolution1D            conv1drelu_24            1 1 163 164 0=128 1=3 2=4 3=1 4=0 5=1 6=49152 7=1 9=1
BatchNorm                bn_23                    1 1 164 165 0=128 1=1.000000e-05
Split                    splitncnn_19             1 2 165 166 167
BinaryOp                 add_18                   2 1 147 167 168 0=0
Padding                  pad_137                  1 1 168 169 0=0 1=0 2=4 3=4 4=2
Convolution1D            conv1drelu_25            1 1 169 170 0=128 1=3 2=4 3=1 4=0 5=1 6=49152 7=1 9=1
BatchNorm                bn_24                    1 1 170 171 0=128 1=1.000000e-05
Split                    splitncnn_20             1 2 171 172 173
BinaryOp                 add_19                   2 1 148 173 174 0=0
Padding                  pad_139                  1 1 174 175 0=0 1=0 2=4 3=4 4=2
Convolution1D            conv1drelu_26            1 1 175 176 0=128 1=3 2=4 3=1 4=0 5=1 6=49152 7=1 9=1
BatchNorm                bn_25                    1 1 176 177 0=128 1=1.000000e-05
Split                    splitncnn_21             1 2 177 178 179
BinaryOp                 add_20                   2 1 149 179 180 0=0
Padding                  pad_141                  1 1 180 181 0=0 1=0 2=4 3=4 4=2
Convolution1D            conv1drelu_27            1 1 181 182 0=128 1=3 2=4 3=1 4=0 5=1 6=49152 7=1 9=1
BatchNorm                bn_26                    1 1 182 183 0=128 1=1.000000e-05
Split                    splitncnn_22             1 2 183 184 185
BinaryOp                 add_21                   2 1 150 185 186 0=0
Padding                  pad_143                  1 1 186 187 0=0 1=0 2=4 3=4 4=2
Convolution1D            conv1drelu_28            1 1 187 188 0=128 1=3 2=4 3=1 4=0 5=1 6=49152 7=1 9=1
BatchNorm                bn_27                    1 1 188 189 0=128 1=1.000000e-05
Concat                   cat_2                    8 1 143 154 160 166 172 178 184 189 190 0=0
Padding                  pad_145                  1 1 190 191 0=0 1=0 2=0 3=0 4=2
Convolution1D            conv1drelu_29            1 1 191 192 0=1024 1=1 2=1 3=1 4=0 5=1 6=1048576 7=1 9=1
BatchNorm                bn_28                    1 1 192 193 0=1024 1=1.000000e-05
Split                    splitncnn_23             1 2 193 194 195
Reduction                mean_73                  1 1 195 196 0=3 1=0 -23303=1,1 4=1 5=1
Padding                  pad_147                  1 1 196 197 0=0 1=0 2=0 3=0 4=2
Convolution1D            conv1drelu_30            1 1 197 198 0=128 1=1 2=1 3=1 4=0 5=1 6=131072 7=1 9=1
Padding                  pad_149                  1 1 198 199 0=0 1=0 2=0 3=0 4=2
Convolution1D            conv1dsigmoid_35         1 1 199 200 0=1024 1=1 2=1 3=1 4=0 5=1 6=131072 7=1 9=4
BinaryOp                 mul_22                   2 1 200 194 201 0=2
BinaryOp                 add_23                   2 1 201 138 202 0=0
Concat                   cat_3                    3 1 71 137 202 203 0=0
Padding                  pad_151                  1 1 203 204 0=0 1=0 2=0 3=0 4=2
Convolution1D            conv1drelu_31            1 1 204 205 0=3072 1=1 2=1 3=1 4=0 5=1 6=9437184 7=1 9=1
BatchNorm                bn_29                    1 1 205 206 0=3072 1=1.000000e-05
Split                    splitncnn_24             1 6 206 207 208 209 210 211 212
Reduction                mean_74                  1 1 212 213 0=3 1=0 -23303=1,1 4=1 5=1
Split                    splitncnn_25             1 2 213 214 215
BinaryOp                 sub_24                   2 1 208 214 216 0=1
Split                    splitncnn_26             1 2 216 217 218
BinaryOp                 mul_25                   2 1 217 218 219 0=2
Reduction                mean_75                  1 1 219 220 0=3 1=0 -23303=1,1 4=1 5=1
Clip                     clamp_69                 1 1 220 221 0=1.000000e-12 1=3.402823e+38
BinaryOp                 mul_26                   1 1 209 222 0=2 1=1 2=0.0
Split                    splitncnn_27             1 2 222 223 224
BinaryOp                 add_27                   2 1 215 223 225 0=0
UnaryOp                  sqrt_28                  1 1 221 226 0=5
BinaryOp                 add_29                   2 1 226 224 227 0=0
Concat                   cat_4                    3 1 207 225 227 228 0=0
Padding                  pad_153                  1 1 228 229 0=0 1=0 2=0 3=0 4=2
Convolution1D            conv1drelu_32            1 1 229 230 0=128 1=1 2=1 3=1 4=0 5=1 6=1179648 7=1 9=1
BatchNorm                bn_30                    1 1 230 231 0=128 1=1.000000e-05
TanH                     tanh_68                  1 1 231 232
Padding                  pad_155                  1 1 232 233 0=0 1=0 2=0 3=0 4=2
Convolution1D            conv_156                 1 1 233 234 0=3072 1=1 2=1 3=1 4=0 5=1 6=393216 7=1
Softmax                  softmax_0                1 1 234 235 0=1 1=1
Split                    splitncnn_28             1 2 235 236 237
BinaryOp                 mul_30                   2 1 236 210 238 0=2
Reduction                sum_76                   1 1 238 239 0=0 1=0 -23303=1,1 4=0 5=1
Split                    splitncnn_29             1 2 239 240 241
ExpandDims               unsqueeze_81             1 1 241 242 -23303=1,1
BinaryOp                 sub_31                   2 1 211 242 243 0=1
Split                    splitncnn_30             1 2 243 244 245
BinaryOp                 mul_32                   2 1 237 244 246 0=2
BinaryOp                 mul_33                   2 1 246 245 247 0=2
Reduction                sum_77                   1 1 247 248 0=0 1=0 -23303=1,1 4=0 5=1
Clip                     clamp_70                 1 1 248 249 0=1.000000e-12 1=3.402823e+38
UnaryOp                  sqrt_34                  1 1 249 250 0=5
Concat                   cat_5                    2 1 240 250 251 0=0
ExpandDims               unsqueeze_82             1 1 251 252 -23303=1,1
BatchNorm                bn_31                    1 1 252 253 0=6144 1=1.000000e-05
Padding                  pad_157                  1 1 253 254 0=0 1=0 2=0 3=0 4=2
Convolution1D            conv_158                 1 1 254 255 0=192 1=1 2=1 3=1 4=0 5=1 6=1179648 7=1
Permute                  transpose_79             1 1 255 out0 0=1
